2021年电赛/新建文件夹 (2)/trained.tflite (tflite, 99248 bytes, 5 tensors)

sequential/dense/MatMul;StatefulPartitionedCall/sequential/dense/MatMul i1 [64, 1024] scale=0.0033732627 zero_point=0
000000 21 0d fb 0c 20 21 d8 02 e7 06 e7 15 f8 f2 ed 22
       0.11131767 0.043852415 -0.016866313 0.040479153 0.10794441 0.11131767 -0.1349305 0.0067465254 -0.084331565 0.020239577 -0.084331565 0.07083852 -0.026986102 -0.047225676 -0.06409199 0.11469093
000010 19 d8 e8 fb 1c 07 20 1b fc 1d 11 f0 04 f9 16 03
       0.084331565 -0.1349305 -0.08095831 -0.016866313 0.09445135 0.023612838 0.10794441 0.091078095 -0.013493051 0.09782462 0.057345465 -0.053972203 0.013493051 -0.023612838 0.074211776 0.010119788
000020 fa 22 fe ff ca 18 3a f0 f3 1c 06 14 f1 0b f8 ed
       -0.020239577 0.11469093 -0.0067465254 -0.0033732627 -0.18215619 0.08095831 0.19564924 -0.053972203 -0.043852415 0.09445135 0.020239577 0.06746525 -0.05059894 0.037105888 -0.026986102 -0.06409199
000030 14 20 11 0f 05 f4 eb c6 07 ef da 0f 0b ef 09 f1
       0.06746525 0.10794441 0.057345465 0.05059894 0.016866313 -0.040479153 -0.07083852 -0.19564924 0.023612838 -0.057345465 -0.12818398 0.05059894 0.037105888 -0.057345465 0.030359365 -0.05059894
000040 14 05 0d 08 fd 0d df 09 e0 18 f4 32 d5 00 01 12
       0.06746525 0.016866313 0.043852415 0.026986102 -0.010119788 0.043852415 -0.11131767 0.030359365 -0.10794441 0.08095831 -0.040479153 0.16866313 -0.1450503 0.0 0.0033732627 0.06071873
000050 e0 ca 15 03 12 14 33 20 0a 1e 01 1f 21 d9 fa 05
       -0.10794441 -0.18215619 0.07083852 0.010119788 0.06071873 0.06746525 0.1720364 0.10794441 0.033732627 0.10119788 0.0033732627 0.10457114 0.11131767 -0.13155724 -0.020239577 0.016866313
000060 f6 00 13 fe 09 03 25 11 d5 07 11 0a cf 1f eb e6
       -0.033732627 0.0 0.06409199 -0.0067465254 0.030359365 0.010119788 0.12481072 0.057345465 -0.1450503 0.023612838 0.057345465 0.033732627 -0.16528988 0.10457114 -0.07083852 -0.08770483
000070 05 1b 13 f3 09 de f9 00 ff 0c fe 0c f2 ff 18 dd
       0.016866313 0.091078095 0.06409199 -0.043852415 0.030359365 -0.11469093 -0.023612838 0.0 -0.0033732627 0.040479153 -0.0067465254 0.040479153 -0.047225676 -0.0033732627 0.08095831 -0.118064195
000080 1a 07 19 16 d3 1e 21 f3 eb 19 d2 0f fb f4 25 0b
       0.08770483 0.023612838 0.084331565 0.074211776 -0.15179682 0.10119788 0.11131767 -0.043852415 -0.07083852 0.084331565 -0.15517008 0.05059894 -0.016866313 -0.040479153 0.12481072 0.037105888
000090 1b e4 2e 26 f0 f4 e5 0e 16 01 2d 26 06 e3 f4 05
       0.091078095 -0.09445135 0.15517008 0.12818398 -0.053972203 -0.040479153 -0.091078095 0.047225676 0.074211776 0.0033732627 0.15179682 0.12818398 0.020239577 -0.09782462 -0.040479153 0.016866313
0000a0 f9 04 fa 26 17 10 21 18 21 1d 15 fd fa 12 06 f2
       -0.023612838 0.013493051 -0.020239577 0.12818398 0.07758504 0.053972203 0.11131767 0.08095831 0.11131767 0.09782462 0.07083852 -0.010119788 -0.020239577 0.06071873 0.020239577 -0.047225676
0000b0 10 10 ea e8 12 e7 f6 eb 08 03 ed 1f d4 10 db f9
       0.053972203 0.053972203 -0.074211776 -0.08095831 0.06071873 -0.084331565 -0.033732627 -0.07083852 0.026986102 0.010119788 -0.06409199 0.10457114 -0.14842355 0.053972203 -0.12481072 -0.023612838
0000c0 fb fa 16 f1 c6 ef 20 06 0d 07 f9 f4 06 e9 0f fb
       -0.016866313 -0.020239577 0.074211776 -0.05059894 -0.19564924 -0.057345465 0.10794441 0.020239577 0.043852415 0.023612838 -0.023612838 -0.040479153 0.020239577 -0.07758504 0.05059894 -0.016866313
0000d0 18 10 16 ec 28 ec f7 ce 11 d4 0b 0f dc 0c cf 0b
       0.08095831 0.053972203 0.074211776 -0.06746525 0.1349305 -0.06746525 -0.030359365 -0.16866313 0.057345465 -0.14842355 0.037105888 0.05059894 -0.12143746 0.040479153 -0.16528988 0.037105888
0000e0 04 fa f4 1c 0b e3 fc f5 04 00 d9 f9 0d 02 dc e2
       0.013493051 -0.020239577 -0.040479153 0.09445135 0.037105888 -0.09782462 -0.013493051 -0.037105888 0.013493051 0.0 -0.13155724 -0.023612838 0.043852415 0.0067465254 -0.12143746 -0.10119788
0000f0 13 e7 06 ef e0 fa 09 d9 ed f9 eb 08 fd e9 e8 22
       0.06409199 -0.084331565 0.020239577 -0.057345465 -0.10794441 -0.020239577 0.030359365 -0.13155724 -0.06409199 -0.023612838 -0.07083852 0.026986102 -0.010119788 -0.07758504 -0.08095831 0.11469093

sequential/y_pred/MatMul;StatefulPartitionedCall/sequential/y_pred/MatMul i1 [8, 64] scale=0.006553409 zero_point=0
000000 87 22 fa 29 dd e8 a5 f0 f0 37 30 29 b0 4d e1 9c
       -0.7929625 0.22281592 -0.039320454 0.26868978 -0.22936933 -0.15728182 -0.5963602 -0.10485455 -0.10485455 0.3604375 0.31456363 0.26868978 -0.52427274 0.5046125 -0.20315568 -0.6553409
000010 97 1b 9f 32 35 dc 19 53 2d 17 d5 9f dc 17 e7 1a
       -0.68810797 0.17694205 -0.6356807 0.32767045 0.3473307 -0.23592272 0.16383523 0.543933 0.2949034 0.1507284 -0.2817966 -0.6356807 -0.23592272 0.1507284 -0.16383523 0.17038864
000020 ac a0 f1 81 25 fa 1d e7 d2 3c 45 c7 03 07 10 3d
       -0.5504864 -0.62912726 -0.098301135 -0.83228296 0.24247614 -0.039320454 0.19004886 -0.16383523 -0.3014568 0.39320454 0.45218524 -0.37354434 0.019660227 0.045873865 0.10485455 0.39975795
000030 fd 2b eb 30 f4 14 22 cd 95 2c ec dc a5 a7 85 0c
       -0.019660227 0.2817966 -0.1376216 0.31456363 -0.07864091 0.13106818 0.22281592 -0.33422387 -0.7012148 0.28835002 -0.13106818 -0.23592272 -0.5963602 -0.58325344 -0.8060693 0.07864091
000040 c4 26 52 3d a8 b8 cf 22 2d d2 bc 18 dc c0 bd 14
       -0.39320454 0.24902955 0.53737956 0.39975795 -0.57670003 -0.47184545 -0.32111704 0.22281592 0.2949034 -0.3014568 -0.44563183 0.15728182 -0.23592272 -0.4194182 -0.43907842 0.13106818
000050 24 11 11 d1 16 a1 17 ab 31 f1 11 1c df f1 d6 94
       0.23592272 0.11140796 0.11140796 -0.30801022 0.14417501 -0.62257385 0.1507284 -0.5570398 0.32111704 -0.098301135 0.11140796 0.18349546 -0.2162625 -0.098301135 -0.2752432 -0.7077682
000060 02 1d fe c8 d8 ee 2d d3 d1 e0 f5 c4 1f 04 18 d0
       0.013106818 0.19004886 -0.013106818 -0.36699092 -0.26213637 -0.11796136 0.2949034 -0.2949034 -0.30801022 -0.2097091 -0.072087504 -0.39320454 0.20315568 0.026213637 0.15728182 -0.31456363
000070 de d9 37 2e 3d 3f 8c 00 20 1d 2f a9 34 23 0f f0
       -0.22281592 -0.25558296 0.3604375 0.3014568 0.39975795 0.41286477 -0.76019543 0.0 0.2097091 0.19004886 0.30801022 -0.5701466 0.34077728 0.22936933 0.098301135 -0.10485455
000080 26 1c b4 38 22 cc f6 21 07 cf 24 2f 1d 3f f9 0f
       0.24902955 0.18349546 -0.4980591 0.36699092 0.22281592 -0.34077728 -0.06553409 0.2162625 0.045873865 -0.32111704 0.23592272 0.30801022 0.19004886 0.41286477 -0.045873865 0.098301135
000090 14 9f 03 1b d8 fd cf ec e0 df 2c cd 09 e5 12 3e
       0.13106818 -0.6356807 0.019660227 0.17694205 -0.26213637 -0.019660227 -0.32111704 -0.13106818 -0.2097091 -0.2162625 0.28835002 -0.33422387 0.05898068 -0.17694205 0.11796136 0.40631136
0000a0 31 b5 a0 22 14 19 25 19 ea 2f 43 11 4b b1 1c 93
       0.32111704 -0.49150568 -0.62912726 0.22281592 0.13106818 0.16383523 0.24247614 0.16383523 -0.14417501 0.30801022 0.43907842 0.11140796 0.49150568 -0.5177193 0.18349546 -0.7143216
0000b0 bc c2 ba 9f c0 ba 16 0a 31 e9 1f cc 21 41 0d d8
       -0.44563183 -0.40631136 -0.45873865 -0.6356807 -0.4194182 -0.45873865 0.14417501 0.06553409 0.32111704 -0.1507284 0.20315568 -0.34077728 0.2162625 0.4259716 0.08519432 -0.26213637
0000c0 af 01 c7 d2 38 2d 37 90 2e f9 a9 2f e8 d0 15 ba
       -0.53082615 0.006553409 -0.37354434 -0.3014568 0.36699092 0.2949034 0.3604375 -0.73398185 0.3014568 -0.045873865 -0.5701466 0.30801022 -0.15728182 -0.31456363 0.1376216 -0.45873865
0000d0 c9 eb 2f 12 2b df 2b 42 f8 16 c3 20 ce f4 2e f7
       -0.3604375 -0.1376216 0.30801022 0.11796136 0.2817966 -0.2162625 0.2817966 0.432525 -0.052427273 0.14417501 -0.39975795 0.2097091 -0.32767045 -0.07864091 0.3014568 -0.05898068
0000e0 17 06 04 09 e6 dd 2a c4 14 d0 c1 20 2a 25 c7 1b
       0.1507284 0.039320454 0.026213637 0.05898068 -0.17038864 -0.22936933 0.2752432 -0.39320454 0.13106818 -0.31456363 -0.41286477 0.2097091 0.2752432 0.24247614 -0.37354434 0.17694205
0000f0 fc db 38 e8 e4 f0 b1 11 b4 f2 2f c5 f0 f6 ff 39
       -0.026213637 -0.24247614 0.36699092 -0.15728182 -0.18349546 -0.10485455 -0.5177193 0.11140796 -0.4980591 -0.09174773 0.30801022 -0.38665113 -0.10485455 -0.06553409 -0.006553409 0.37354434

sequential/conv2d/Conv2D;StatefulPartitionedCall/sequential/conv2d/Conv2D i1 [16, 3, 3, 3]
000000 ab b0 4d 07 24 f7 e0 cc ec bf a3 03 3b 93 17 b0
       -85 -80 77 7 36 -9 -32 -52 -20 -65 -93 3 59 -109 23 -80
000010 c4 6c a2 08 7f 48 0a 72 1f 66 0a 1f d8 f4 2e 0a
       -60 108 -94 8 127 72 10 114 31 102 10 31 -40 -12 46 10
000020 06 7f fe e5 2b aa 96 6b 16 a9 05 22 b7 0c 0c ac
       6 127 -2 -27 43 -86 -106 107 22 -87 5 34 -73 12 12 -84
000030 21 dd 41 6f 03 85 22 e7 cd 81 b2 d4 59 14 49 08
       33 -35 65 111 3 -123 34 -25 -51 -127 -78 -44 89 20 73 8
000040 dc f4 cb ed b6 f3 63 19 e7 fa b0 d9 d6 e9 17 65
       -36 -12 -53 -19 -74 -13 99 25 -25 -6 -80 -39 -42 -23 23 101
000050 63 98 e3 5a f3 e7 1b 37 7e 44 99 0a 52 32 d6 bb
       99 -104 -29 90 -13 -25 27 55 126 68 -103 10 82 50 -42 -69
000060 03 f0 e0 c4 00 f2 2f 61 6a c2 81 cb 06 d3 4a 19
       3 -16 -32 -60 0 -14 47 97 106 -62 -127 -53 6 -45 74 25
000070 c4 27 1a 18 2c f9 1a 16 33 18 65 19 62 d4 36 c2
       -60 39 26 24 44 -7 26 22 51 24 101 25 98 -44 54 -62
000080 bf c9 ff 81 e0 e8 8d 3c 29 1b ff 4e 20 7f 06 58
       -65 -55 -1 -127 -32 -24 -115 60 41 27 -1 78 32 127 6 88
000090 e8 0e 4c 19 6e f5 4e a6 d3 02 de ce 86 c3 e5 86
       -24 14 76 25 110 -11 78 -90 -45 2 -34 -50 -122 -61 -27 -122
0000a0 ab aa ad 98 dd 7f e5 0d 57 6b 7d d4 a0 d4 e5 b9
       -85 -86 -83 -104 -35 127 -27 13 87 107 125 -44 -96 -44 -27 -71
0000b0 63 eb 3c 4c fa 9b c3 9c a7 94 10 2b 0e fb fe 37
       99 -21 60 76 -6 -101 -61 -100 -89 -108 16 43 14 -5 -2 55
0000c0 c0 c4 81 f5 d4 97 62 6a 6e 57 cb 4a 85 ea a3 7d
       -64 -60 -127 -11 -44 -105 98 106 110 87 -53 74 -123 -22 -93 125
0000d0 4b 24 0c c9 55 28 c9 aa 39 4e f2 45 e9 44 56 ce
       75 36 12 -55 85 40 -55 -86 57 78 -14 69 -23 68 86 -50
0000e0 04 e5 28 1e 5e 18 eb 18 02 2f b1 93 e3 b3 05 81
       4 -27 40 30 94 24 -21 24 2 47 -79 -109 -29 -77 5 -127
0000f0 e4 e9 c8 02 c7 e1 9f 3b 81 36 49 fb fb 3d 9a 3f
       -28 -23 -56 2 -57 -31 -97 59 -127 54 73 -5 -5 61 -102 63

sequential/conv2d_1/Conv2D;StatefulPartitionedCall/sequential/conv2d_1/Conv2D i1 [32, 3, 3, 16]
000000 eb 4d ce 41 39 ef 0e 0f 3a 4c 24 10 5f dd 14 00
       -21 77 -50 65 57 -17 14 15 58 76 36 16 95 -35 20 0
000010 bb 6a b6 cb 04 dd 2c f2 1c fb 1c f6 29 c6 fa bc
       -69 106 -74 -53 4 -35 44 -14 28 -5 28 -10 41 -58 -6 -68
000020 ad 23 0a 0b ff 2c 2b cf 22 ef ff dc 2f 00 e4 c9
       -83 35 10 11 -1 44 43 -49 34 -17 -1 -36 47 0 -28 -55
000030 2a 43 de 0b e0 c1 ee 34 e8 1b 06 02 64 ed 0d 14
       42 67 -34 11 -32 -63 -18 52 -24 27 6 2 100 -19 13 20
000040 10 5f 02 ea ff df 81 1f 08 23 e3 ff 16 c8 a9 e8
       16 95 2 -22 -1 -33 -127 31 8 35 -29 -1 22 -56 -87 -24
000050 1a 2d 36 dc e5 22 9e 02 be 37 21 fd 53 1b b1 f4
       26 45 54 -36 -27 34 -98 2 -66 55 33 -3 83 27 -79 -12
000060 f6 33 b1 33 d6 22 e7 01 04 39 05 08 18 e7 11 f0
       -10 51 -79 51 -42 34 -25 1 4 57 5 8 24 -25 17 -16
000070 b4 38 dc 0f ea 25 e1 fa 0b 43 22 fc 3b cd be d6
       -76 56 -36 15 -22 37 -31 -6 11 67 34 -4 59 -51 -66 -42
000080 d8 61 09 f7 10 16 33 d2 fb 22 16 f9 18 1a ef e1
       -40 97 9 -9 16 22 51 -46 -5 34 22 -7 24 26 -17 -31
000090 ed c1 10 1d dc e8 f5 19 03 0e 0a e3 35 eb 2c 0c
       -19 -63 16 29 -36 -24 -11 25 3 14 10 -29 53 -21 44 12
0000a0 e6 14 17 f3 fd 07 09 02 26 0a bb e4 e2 0e 27 f7
       -26 20 23 -13 -3 7 9 2 38 10 -69 -28 -30 14 39 -9
0000b0 da ec 05 1d f9 f8 f6 21 19 c2 fb 12 e3 15 f0 e7
       -38 -20 5 29 -7 -8 -10 33 25 -62 -5 18 -29 21 -16 -25
0000c0 f5 c3 fd 08 ff ec 01 42 e8 16 d5 07 e9 28 35 f5
       -11 -61 -3 8 -1 -20 1 66 -24 22 -43 7 -23 40 53 -11
0000d0 e0 09 2e 06 f5 0c 1e 21 06 cc 00 ee 1d 05 47 05
       -32 9 46 6 -11 12 30 33 6 -52 0 -18 29 5 71 5
0000e0 0a ff 04 21 ef ef 02 f4 fd f3 12 ea c5 19 09 19
       10 -1 4 33 -17 -17 2 -12 -3 -13 18 -22 -59 25 9 25
0000f0 08 e6 2b 38 46 2e b0 fb 4b 01 7f 06 14 03 b1 29
       8 -26 43 56 70 46 -80 -5 75 1 127 6 20 3 -79 41

sequential/conv2d_2/Conv2D;StatefulPartitionedCall/sequential/conv2d_2/Conv2D i1 [64, 3, 3, 32]
000000 c0 05 e9 19 0b fc f4 10 1a fe d0 1c 15 bf b7 e0
       -64 5 -23 25 11 -4 -12 16 26 -2 -48 28 21 -65 -73 -32
000010 27 eb d8 00 c2 21 fa fa 09 e6 2d a2 e9 11 bd 18
       39 -21 -40 0 -62 33 -6 -6 9 -26 45 -94 -23 17 -67 24
000020 eb e0 f6 1c f5 09 1f 07 3a fd f3 00 66 c2 18 27
       -21 -32 -10 28 -11 9 31 7 58 -3 -13 0 102 -62 24 39
000030 ff fd b2 1f e9 f1 20 f1 c8 bb bf ed 0f 49 8b c4
       -1 -3 -78 31 -23 -15 32 -15 -56 -69 -65 -19 15 73 -117 -60
000040 fb d2 d6 10 08 af ea e7 2d df e5 fe f3 0f db e6
       -5 -46 -42 16 8 -81 -22 -25 45 -33 -27 -2 -13 15 -37 -26
000050 e2 ee ce c6 18 11 01 1e f5 06 01 c5 f5 24 d0 f3
       -30 -18 -50 -58 24 17 1 30 -11 6 1 -59 -11 36 -48 -13
000060 c7 fc 09 2f 4d 58 f4 ca cb 3f c7 fc f0 fe ed fc
       -57 -4 9 47 77 88 -12 -54 -53 63 -57 -4 -16 -2 -19 -4
000070 9f cf f5 00 81 ed e7 ea 0c fe 2b 21 cb df c1 3b
       -97 -49 -11 0 -127 -19 -25 -22 12 -2 43 33 -53 -33 -63 59
000080 f3 ff 08 1d 54 57 29 e1 1a 40 05 0e 32 00 27 1e
       -13 -1 8 29 84 87 41 -31 26 64 5 14 50 0 39 30
000090 d7 d5 28 44 d7 eb b6 a1 c3 dd f1 40 01 06 ca 12
       -41 -43 40 68 -41 -21 -74 -95 -61 -35 -15 64 1 6 -54 18
0000a0 0e 05 91 0c e3 fe 2d e5 f4 1b e8 e1 0c 23 20 fe
       14 5 -111 12 -29 -2 45 -27 -12 27 -24 -31 12 35 32 -2
0000b0 c8 e1 0d 08 d4 fc 88 f2 e5 11 0b 60 e4 08 f3 e2
       -56 -31 13 8 -44 -4 -120 -14 -27 17 11 96 -28 8 -13 -30
0000c0 b6 14 26 3c 2f 56 03 0e d1 37 f9 d8 06 06 18 06
       -74 20 38 60 47 86 3 14 -47 55 -7 -40 6 6 24 6
0000d0 ca 0d 4b 22 c9 c6 f6 08 e1 0e fc 2d d4 2b cf f8
       -54 13 75 34 -55 -58 -10 8 -31 14 -4 45 -44 43 -49 -8
0000e0 c8 f0 10 2e 0c 37 38 28 19 51 fe f4 13 3e f7 10
       -56 -16 16 46 12 55 56 40 25 81 -2 -12 19 62 -9 16
0000f0 d6 fb 3d f0 e9 e9 bf b1 b8 e6 a5 70 ed fe 1b c4
       -42 -5 61 -16 -23 -23 -65 -79 -72 -26 -91 112 -19 -2 27 -60
